Assets/ML-Agents/MovingCubeBehavior.onnx (onnx, 102334 bytes, 5 tensors)

network_body._body_endoder.seq_layers.0.weight f4 [128, 65]
0.074383676 -0.06501141 0.032963425 0.40458763 0.013697173 -0.0966408 -0.02273231 0.49824676
0.23301543 -0.0013834159 -0.041385897 -0.12415931 -0.68393886 0.13442467 0.4756793 0.13894598
0.009737044 0.03800058 0.7735782 0.2105278 -0.077480674 0.22029972 -0.23142876 0.1811665
0.40593907 0.26406592 0.12542099 -0.15529457 -0.2894666 -0.21829927 -0.08240429 -0.23947376
0.5859554 0.085958384 0.24448197 -0.12569952 0.18451752 0.21416602 -0.10417501 -0.17186993
-0.21088457 -0.059199028 0.26722836 -0.03505774 0.01962148 -0.07998068 0.026934246 -0.31167403
-0.13476096 -0.44241533 -0.047552124 -0.13943015 0.25519302 -0.012072762 0.13425924 0.2602198
-0.16308536 0.18553193 -0.017642902 -0.34287542 -0.27946284 -0.08566455 -0.1102628 -0.13499324
0.25807813 0.009729524 0.02318416 -0.5070163 0.45307642 0.05472484 -0.18480547 0.07487816
-0.53707296 0.2671983 0.102820836 -0.22996274 -0.7895607 -0.38178053 0.08640919 0.108460896
0.1225738 -0.0747439 -0.71874106 0.2946726 -0.5155821 -0.012228969 -0.3863975 0.3285517
0.023531169 0.06985109 0.15781803 -0.12279695 0.6063991 0.33620787 0.36605594 0.055760015
-0.04925896 -0.11811315 -0.024459 0.075163856 -0.10164673 0.088200495 0.279582 0.17088144
0.18523017 -0.02372565 -0.08194679 0.7156049 -0.014558747 -0.17609932 -0.11137352 -0.15657735
0.20695059 0.11606542 0.055248313 -0.1923484 0.06603334 0.30370933 0.1789983 -0.090466216
0.005474707 -0.042684536 -0.03254619 -0.08931061 0.3674074 -0.018016104 0.20229518 0.0674364
0.20737727 0.013105206 -0.0005916211 0.07294374 -0.10431214 0.01631949 -0.07677658 -0.023097834
-0.09003031 -0.52412736 -0.5759142 0.21698117 0.2201645 -0.4378315 -0.10508207 -0.6037451
0.14672573 -0.12637761 -0.14363201 -0.26537433 -0.63979816 -0.23270224 0.008526051 0.005989633
0.27251515 -0.26971728 0.14556055 0.0741922 0.25104177 -0.4484221 -0.0742126 0.23850283
0.20755821 0.035837416 -0.18742757 -0.036317192 -0.26166874 0.09324471 0.1259632 -0.081793
-0.2871687 0.3660206 -0.1431206 -0.012689248 0.24629371 -0.30972067 -0.37189025 0.04651607
-0.066378616 -0.074597135 -0.19370076 0.06831619 0.024254013 -0.12349765 0.07955706 -0.17783499
-0.06830278 0.06046777 0.059597053 0.043444596 -0.16350901 0.12156022 0.07426455 0.28733364
0.127025 0.059008736 0.28022653 -0.01618362 -0.10553676 -0.09205167 -0.23896056 0.010334149
-0.025519108 0.0019446373 -0.06522498 0.1525082 -0.12235537 0.15981899 -0.34271392 0.58650345
-0.03409706 0.08727456 0.08318024 -0.028001742 -0.27534315 0.30789316 0.32805339 0.040714763
-0.28709212 0.47121808 -0.6725146 0.14540769 -0.0031806903 -0.25353184 -0.13025992 -0.05565077
0.4109736 -0.12276115 0.033042703 -0.47809705 -0.08647662 -0.17726643 -0.2012838 -0.16039847
0.15038274 0.0813378 -0.047727544 0.077888444 -0.07038738 0.13387378 0.19711062 -0.35295883
0.15053989 0.107351385 0.16665421 0.0052050343 0.45331866 0.01033905 0.20857549 -0.33020782
-0.11062572 -0.20646355 0.016432883 -0.2037164 0.24201487 -0.12726754 0.13442442 -0.23492916
00000000: 7856 983d b424 85bd a804 073d 1c26 cf3e
00000010: 1c6a 603c 9deb c5bd 1c39 babc 331a ff3e
00000020: 999b 6e3e bc53 b5ba 4284 29bd 3c47 febd
00000030: 9e16 2fbf 9fa6 093e 3d8c f33e db47 0e3e
00000040: 1f88 1f3c 7fa6 1b3d 3909 463f 9994 573e
00000050: 30ae 9ebd 4096 613e a9fb 6cbe b683 393e
00000060: 3fd7 cf3e a633 873e 5c6e 003e 8a05 1fbe
00000070: f734 94be d889 5fbe 95c3 a8bd 9c38 75be
00000080: 2c01 163f f30a b03d 7b59 7a3e 60b7 00be
00000090: 29f2 3c3e 564e 5b3e b559 d5bd acfe 2fbe
000000a0: 20f2 57be ae7a 72bd 28d2 883e b498 0fbd
000000b0: 3abd a03c e9cc a3bd 35a5 dc3c bd93 9fbe
000000c0: c7fe 09be 4384 e2be 04c6 42bd c7c6 0ebe
000000d0: a9a8 823e d5cc 45bc 417b 093e 883b 853e
000000e0: d9ff 26be 15fc 3d3e d987 90bc 5e8d afbe
000000f0: c115 8fbe e570 afbd 76d1 e1bd ab3b 0abe
00000100: d122 843e 9568 1f3c b5ec bd3c d2cb 01bf
00000110: a2f9 e73e 2727 603d a53d 3dbe b959 993d
00000120: 9d7d 09bf 37ce 883e bb93 d23d 5a7b 6bbe
00000130: a620 4abf bd78 c3be 4df7 b03d bf20 de3d
00000140: f907 fb3d 5413 99bd 6aff 37bf 54df 963e
00000150: 30fd 03bf 035c 48bc e5d5 c5be ee37 a83e
00000160: 70c4 c03c 170e 8f3d 0d9b 213e f87c fbbd
00000170: f93c 1b3f 7023 ac3e af6b bb3e 9d64 643d
00000180: c3c3 49bd 4fe5 f1bd 3e5e c8bc 82ef 993d
00000190: 292c d0bd 76a2 b43d 5f25 8f3e 8bfb 2e3e
000001a0: faac 3d3e 4b5c c2bc b8d3 a7bd e231 373f
000001b0: d087 6ebc 6153 34be cd17 e4bd d055 20be
000001c0: dbea 533e b5b3 ed3d 0e4c 623d fbf6 44be
000001d0: 7d3c 873d ca7f 9b3e 554b 373e 5a46 b9bd
000001e0: 2c65 b33b fbd5 2ebd 274f 05bd 7be8 b6bd
000001f0: d31c bc3e 8296 93bc 7826 4f3e 181c 8a3d
00000200: b55a 543e 38b7 563c 0517 1bba 8763 953d
00000210: 9aa1 d5bd 73b0 853c 0a3d 9dbd ab37 bdbc
00000220: d061 b8bd 362d 06bf 1d6f 13bf 5030 5e3e
00000230: cd72 613e 732b e0be 4535 d7bd 0a8f 1abf
00000240: 453f 163e 2269 01be 4514 13be 25df 87be
00000250: d0c9 23bf 7f49 6ebe dab0 0b3c af44 c43b
00000260: 1b87 8b3e 6218 8abe d30d 153e 15f2 973d
00000270: 8c88 803e 9597 e5be c7fc 97bd 163a 743e
00000280: 248a 543e 41ca 123d 03ed 3fbe 56c1 14bd
00000290: 72f9 85be 15f7 be3d 7ffc 003e 1783 a7bd
000002a0: c707 93be 0d67 bb3e 358e 12be 90e6 4fbc
000002b0: 6b34 7c3e b593 9ebe 6668 bebe a287 3e3d
000002c0: 83f1 87bd 62c6 98bd 7e59 46be 5ce9 8b3d
000002d0: 5ab0 c63c 56ec fcbd d0ee a23d 601a 36be
000002e0: 54e2 8bbd 0dad 773d 0a1c 743d f6f2 313d
000002f0: e86e 27be 91f4 f83d 0318 983d 651d 933e
00000300: d712 023e 25b3 713d da79 8f3e 8393 84bc
00000310: a823 d8bd 9685 bcbd 14b2 74be 9050 293c
00000320: 730d d1bc 33e3 fe3a ad94 85bd 1c2b 1c3e
00000330: 7495 fabd 97a7 233e 3378 afbe 1725 163f
00000340: 5ca9 0bbd 01bd b23d 675a aa3d e963 e5bc
00000350: c7f9 8cbe 2ca4 9d3e 9df6 a73e 86c4 263d
00000360: bdfd 92be 7f43 f13e eb29 2cbf c1e5 143e
00000370: 2173 50bb edce 81be db62 05be 10f2 63bd
00000380: 226b d23e 336a fbbd c957 073d 23c9 f4be
00000390: a71a b1bd 5585 35be 571d 4ebe 7f3f 24be
000003a0: effd 193e 6f94 a63d f57d 43bd fa83 9f3d
000003b0: 4227 90bd 3516 093e 5ed7 493e 05b7 b4be
000003c0: 2127 1a3e 0bdb db3d 67a7 2a3e fe8e aa3b
000003d0: 6219 e83e 1e65 293c d094 553e 0011 a9be
000003e0: bd8f e2bd 2e6b 53be 419e 863c 089b 50be
000003f0: bfd2 773e 6c52 02be 8ea6 093e 4591 70be

network_body._body_endoder.seq_layers.0.bias f4 [128]
-0.009009226 -0.10174731 -0.118039265 -0.014918939 0.2893013 -0.013124333 -0.13189128 -0.17591114
0.0744449 0.048944615 0.09179533 0.018377762 -0.021718219 -0.05872444 -0.14829996 -0.06359159
-0.049759347 -0.050416082 0.07304848 -0.07458975 0.0808917 -0.17883007 0.10746457 -0.12403511
-0.11271476 -0.1801265 -0.090937294 0.073659204 0.112709574 0.091583155 0.24739692 0.0830727
0.23209527 -0.056048386 -0.13237752 0.0072706183 -0.0061461553 -0.14420815 0.120406605 0.29803595
0.17031327 0.044782173 -0.13271527 0.090300165 0.06348562 -0.12406857 -0.03165783 0.02119128
-0.012394596 0.015934989 0.0010560602 0.18832293 -0.16784666 -0.14925365 -0.032206476 -0.01203972
0.102794595 0.12118824 0.14701942 0.045283742 0.08778838 0.01000233 -0.080299094 0.010870089
0.026631892 0.02533502 0.06900372 -0.11989538 -0.15070866 0.13547246 -0.1416237 -0.058378674
0.073784664 -0.012246173 0.19110598 -0.14492738 0.012595439 0.23444888 0.011792733 -0.08481666
0.0522953 0.10976247 0.065740295 -0.04409486 -0.062022094 0.024465255 0.256109 -0.100408114
-0.030456858 -0.18411608 0.20949824 0.26395762 0.012361541 0.27624545 0.14857751 0.0463542
-0.07413939 -0.033876892 0.049711894 0.13828258 -0.02541379 -0.0696415 0.037256986 -0.09956208
-0.056503713 -0.03354177 0.10760428 -0.06312989 -0.013680832 -0.00172788 0.11206354 0.21939504
0.010043106 0.17307913 -0.025519442 -0.04249472 -0.14245985 0.2828596 -0.07234326 0.17789754
0.1350878 -0.059344847 -0.13964266 -0.028427836 -0.14321002 -0.061746087 0.043130342 -0.08705653
00000000: 6f9b 13bc e560 d0bd 92be f1bd 916e 74bc
00000010: 4d1f 943e 7107 57bc 820e 07be 0d22 34be
00000020: 9176 983d 267a 483d 31ff bb3d f68c 963c
00000030: 68ea b1bc 0a89 70bd f2db 17be 4f3c 82bd
00000040: 75d0 4bbd 1881 4ebd 719a 953d 83c2 98bd
00000050: 8caa a53d 3b1f 37be 6216 dc3d 1f06 febd
00000060: ffd6 e6bd 1573 38be 553d babd a3da 963d
00000070: 47d4 e63d f38f bb3d 9e55 7d3e 0522 aa3d
00000080: 62aa 6d3e fe92 65bd f98d 07be 5e3e ee3b
00000090: b065 c9bb 4dab 13be bd97 f63d 2b98 983e
000000a0: 9a66 2e3e 836d 373d 83e6 07be 4bef b83d
000000b0: c004 823d aa17 febd a4ab 01bd 5699 ad3c
000000c0: b412 4bbc 188a 823c 806b 8a3a bad7 403e
000000d0: ffdf 2bbe f3d5 18be f0ea 03bd 3f42 45bc
000000e0: f985 d23d 8a31 f83d 428c 163e 727b 393d
000000f0: 65ca b33d d0e0 233c da73 a4bd 7518 323c
00000100: 202b da3c 638b cf3c d351 8d3d b68b f5bd
00000110: 5f53 1abe 4bb9 0a3e ce05 11be 7a1e 6fbd
00000120: 6a1c 973d 2ca4 48bc 49b1 433e d867 14be
00000130: 1a5d 4e3c 5e13 703e 4f36 413c 5bb4 adbd
00000140: 9933 563d 25cb e03d d9a2 863d d09c 34bd
00000150: e10a 7ebd 5c6b c83c b820 833e c5a2 cdbd
00000160: a980 f9bc ed88 3cbe b586 563e 7425 873e
00000170: 1088 4a3c 0b70 8d3e b424 183e e7dd 3d3d
00000180: 64d6 97bd 7fc2 0abd b39e 4b3d f399 0d3e
00000190: 9530 d0bc 34a0 8ebd c89a 183d 34e7 cbbd
000001a0: 7070 67bd 1863 09bd a25f dc3d 3e4a 81bd
000001b0: 9225 60bc 087a e2ba 9281 e53d 18a9 603e
000001c0: d78b 243c a83b 313e 260e d1bc f20e 2ebd
000001d0: ffe0 11be f9d2 903e b428 94bd c62a 363e
000001e0: 7554 0a3e 9513 73bd 7cfe 0ebe 7ee1 e8bc
000001f0: a6a5 12be 77e9 7cbd 71a9 303d b24a b2bd

network_body._body_endoder.seq_layers.2.weight f4 [128, 128]
-0.006756763 0.022592077 0.18893667 -0.15313248 0.0031705168 -0.08031571 -0.03923226 0.0631098
-0.06848785 0.08857252 -0.01962408 0.0045858594 0.071462 -0.0640848 0.05859521 -0.011796567
-0.10173818 -0.038232565 0.025338655 -0.065789536 0.007932006 -0.02387976 0.016213039 0.032416362
0.001930194 0.19144912 -0.026208343 0.029029852 0.11747077 -0.06789269 0.1145831 0.11240876
-0.04429584 -0.020271005 -0.09939986 0.010659701 0.062473454 0.07175755 0.004371847 -0.04225012
0.11512454 -0.007457821 0.14456576 -0.026356978 0.031637058 0.014504037 0.08045922 -0.018241433
0.13749798 -0.11797855 0.1986222 -0.09390731 0.058590587 0.0101511115 -0.061664924 -0.05687851
0.16355458 -0.016590314 0.027413223 0.13821903 -0.018520324 0.017494746 0.04864248 0.021877643
0.09208809 -0.06569103 -0.03898101 0.025835086 -0.08398923 -0.14177288 -0.038966086 0.0071699154
-0.05565137 0.013054201 0.08616032 0.03608362 -0.030285565 0.09213234 -0.14525925 -0.18202162
-0.029363966 0.017812308 0.028545042 0.08936861 -0.003748291 0.079985395 0.09995154 -0.0052972194
0.058115885 -0.0014409221 0.088405 -0.06510585 0.08023086 -0.11355571 0.01723739 -0.06357901
0.35307255 0.07919999 -0.01191755 -0.07887699 -0.07965572 -0.13716528 0.09275247 0.17717914
-0.06701528 -0.03367854 0.027167557 0.092762254 -0.10078963 -0.08550672 -0.07237605 0.033953473
-0.15099342 0.05347371 -0.018006412 -0.11113121 -0.038573004 -0.040120665 -0.06739057 0.044810407
0.00020152006 0.11427083 0.06469795 -0.09650184 0.057846375 0.10205467 -0.08808012 -0.059930615
-0.06763584 -0.07758343 -0.11042915 -0.013705847 0.008126436 -0.06220975 0.09725153 -0.025371982
0.010497533 -0.07764041 -0.06527348 -0.07232178 -0.00939655 0.026502829 -0.07901648 -0.19827726
-0.11628783 -0.08857044 0.118344255 0.15065922 -0.12752059 0.058242664 -0.04936219 -0.047630135
0.13720734 0.020099495 -0.019585798 -0.021732038 0.044685304 -0.08261003 0.11178898 -0.10700373
-0.00824968 0.0097002555 0.1019044 0.08831801 -0.11066416 -0.09170811 0.1675736 -0.04949374
0.0097501995 -0.02999092 -0.08907942 -0.08495686 -0.050429612 -0.012881363 0.15008062 0.160276
0.10214762 0.007606074 0.096002914 0.07500592 -0.1004638 0.10223116 0.03213051 0.06673477
0.04725126 0.028395995 -0.0730599 -0.028688382 -0.083366744 -0.16087893 0.1305561 -0.12003015
0.014087726 -0.04801278 0.071204215 -0.031694043 -0.065083645 0.10331576 0.054276846 -0.0741956
-0.03217314 0.0029345648 0.021434948 0.042268876 -0.07884637 0.06245619 -0.05996206 0.09557331
0.013610244 0.09084416 0.12701781 0.06234478 0.06753324 -0.1320446 0.016069133 0.115171105
-0.022507556 -0.005967472 0.038634084 0.027550966 0.15119082 0.2258537 0.1281893 0.089654624
0.013610382 -0.058214128 -0.054111462 -0.114068106 -0.06959236 0.17615461 -0.0016925412 -0.0026925432
-0.025483122 0.011303878 -0.06674712 -0.091388494 0.034256585 -0.025681285 0.032767154 0.09168697
0.084296905 -0.0243503 0.13566783 -0.0064769066 -0.015549445 -0.053986873 0.07100442 -0.081686385
0.0834514 0.1221815 -0.012174627 0.014907297 0.006356684 -0.04299853 -0.011820392 -0.16497095
00000000: d667 ddbb 0513 b93c 9d78 413e c3ce 1cbe
00000010: 72c8 4f3b 907c a4bd 02b2 20bd b63f 813d
00000020: 5c43 8cbd 8265 b53d aec2 a0bc fa44 963b
00000030: ab5a 923d e43e 83bd 8801 703d 6346 41bc
00000040: 1b5c d0bd c099 1cbd 0393 cf3c aabc 86bd
00000050: 3ff5 013c 7d9f c3bc 35d1 843c 05c7 043d
00000060: 90fe fc3a 3d0b 443e e1b2 d6bc 03d0 ed3c
00000070: 8494 f03d 530b 8bbd 8baa ea3d 9036 e63d
00000080: 8e6f 35bd 610f a6bc 2792 cbbd 07a6 2e3c
00000090: 2ae4 7f3d 9ff5 923d b641 8f3b 760e 2dbd
000000a0: 6ac6 eb3d bd60 f4bb 0c09 143e 97ea d7bc
000000b0: dc95 013d 57a2 6d3c cec7 a43d 0f6f 95bc
000000c0: 45cc 0c3e bd9e f1bd 9e63 4b3e 7a52 c0bd
000000d0: affc 6f3d d950 263c 5c94 7cbd 71f9 68bd
000000e0: da7a 273e 69e8 87bc b291 e03c 4a89 0d3e
000000f0: efb7 97bc 2451 8f3c 563d 473d be38 b33c
00000100: ae98 bc3d 0589 86bd 8daa 1fbd 1aa4 d33c
00000110: 8c02 acbd e92c 11be e79a 1fbd 9cf1 ea3b
00000120: b1f2 63bd 4ae1 553c d274 b03d 6bcc 133d
00000130: 6f19 f8bc e1af bc3d d7be 14be e063 3abe
00000140: b38c f0bc 1eeb 913c 4bd7 e93c e406 b73d
00000150: e3a5 75bb 62cf a33d 65b3 cc3d 4c94 adbb
00000160: ec0a 6e3d 53dd bcba ae0d b53d 3756 85bd
00000170: 1450 a43d e58f e8bd 6d35 8d3c b635 82bd
00000180: edc5 b43e 9b33 a23d d441 43bc 428a a1bd
00000190: 8a22 a3bd 0e75 0cbe 02f5 bd3d 736e 353e
000001a0: 4f3f 89bd 82f2 09bd 7f8e de3c 23fa bd3d
000001b0: cb6a cebd 261e afbd e539 94bd cc12 0b3d
000001c0: 059e 1abe 4007 5b3d 2f82 93bc c398 e3bd
000001d0: bafe 1dbd 9155 24bd 1104 8abd 1e8b 373d
000001e0: 214f 5339 d306 ea3d 5c80 843d c2a2 c5bd
000001f0: 52f0 6c3d 0a02 d13d 5a63 b4bd ce79 75bd
00000200: a984 8abd 10e4 9ebd ae28 e2bd 7d8e 60bc
00000210: be24 053c a7cf 7ebd cf2b c73d e7d8 cfbc
00000220: d8fd 2b3c ef01 9fbd 1aae 85bd 711d 94bd
00000230: fdf3 19bc 761c d93c 64d3 a1bd 3209 4bbe
00000240: 5028 eebd 6b64 b5bd 795e f23d 6946 1a3e
00000250: c294 02be dc8f 6e3d 0230 4abd d117 43bd
00000260: 1580 0c3e b2a7 a43c 6572 a0bc 6307 b2bc
00000270: f007 373d 732f a9bd 9ff1 e43d c624 dbbd
00000280: aa29 07bc d2ed 1e3c 41b3 d03d 13e0 b43d
00000290: e4a3 e2bd 76d1 bbbd 6a98 2b3e f3b9 4abd
000002a0: 4dbf 1f3c 85af f5bc 456f b6bd ddfd adbd
000002b0: 488f 4ebd 5a0c 53bc bcae 193e 641f 243e
000002c0: c532 d13d 603c f93b 2d9d c43d b49c 993d
000002d0: f7bf cdbd 925e d13d 489b 033d 3dac 883d
000002e0: 8a8a 413d b89e e83c 6ea0 95bd e603 ebbc
000002f0: 2fbc aabd 72bd 24be 80b0 053e 5ed2 f5bd
00000300: 35d0 663c 0ca9 44bd 84d3 913d 9dd1 01bd
00000310: 934a 85bd 3797 d33d 6651 5e3d ddf3 97bd
00000320: fcc7 03bd d451 403b 5898 af3c 2122 2d3d
00000330: 357a a1bd 10d2 7f3d c79a 75bd f1bb c33d
00000340: 80fd 5e3c 810c ba3d f510 023e 3d5d 7f3d
00000350: de4e 8a3d b336 07be 6aa3 833c d4de eb3d
00000360: c461 b8bc c98a c3bb c63e 1e3d 90b2 e13c
00000370: c4d1 1a3e 3146 673e 0e44 033e d89c b73d
00000380: 14fe 5e3c f071 6ebd fba3 5dbd 8a9c e9bd
00000390: 7086 8ebd e061 343e 42d8 ddba 6175 30bb
000003a0: fbc1 d0bc e733 393c b7b2 88bd e429 bbbd
000003b0: a250 0c3d 8f61 d2bc da36 063d 61c6 bb3d
000003c0: dba3 ac3d 487a c7bc 82ec 0a3e 3b3c d4bb
000003d0: 19c3 7ebc 5721 5dbd c46a 913d 314b a7bd
000003e0: 91e8 aa3d 4b3a fa3d 1678 47bc bc3d 743c
000003f0: bb4b d03b 3a1f 30bd 51aa 41bc 25ee 28be

network_body._body_endoder.seq_layers.2.bias f4 [128]
-0.0106534455 -0.007668944 -0.024053039 -0.010112435 -0.0035129096 -0.014436056 -0.025384322 -0.034846894
-0.00683926 0.018193565 0.052634716 0.00042928843 -0.008627431 0.006645612 -0.05728654 -0.06546625
-0.019940235 -0.083710335 0.07014631 0.000931833 -0.029050102 0.003282608 0.00453662 0.037343133
-0.0222225 -0.09358268 0.012500496 0.00862423 -0.06811861 0.028144823 0.0058652386 -0.0900526
-0.08199511 -0.032519024 -0.037804008 -0.036167763 0.0077687884 -0.00717341 0.014891906 -0.09572515
-0.023821944 -0.004767124 -0.036649775 -0.009287715 -0.025980733 -0.045199063 -0.005740141 -0.10441496
-0.10039703 -0.047338273 -0.042201634 -0.009353601 0.014692056 -0.028588256 -0.032203373 -0.036919378
0.010769582 0.010389262 -0.005498896 -0.049606316 0.043103088 -0.09604714 0.04167326 -0.017351758
0.018164426 -0.00055825606 -0.02250671 -0.098763876 -0.0586218 0.041398264 -0.019876417 -0.038591433
0.03181622 -0.09432702 -0.07939945 0.044100363 -0.056987423 -0.009024261 -0.01791926 -0.041687746
-0.07838919 -0.00998974 -0.05505601 -0.024237981 -0.07426457 0.019622784 0.035590414 0.09212026
-0.06089496 -0.01197847 0.019920122 0.034238417 -0.00898787 -0.0030938855 -0.09695115 0.00585062
-0.057641357 -0.13105983 0.019609513 0.011845096 -0.118938275 -0.009348238 0.0387965 -0.0032892565
-0.0080129355 0.008395716 -0.028389174 -0.032434873 -0.0013260248 -0.008948614 -0.13005628 -0.0042407555
-0.012456746 0.029624783 -0.0058207707 -0.052960645 0.01232211 -0.04810567 0.053250715 -0.056566235
-0.013134164 0.04849773 -0.123485215 0.0028862592 0.029363055 0.00030780706 -0.007179396 0.0048704874
00000000: ca8b 2ebc c44b fbbb e10a c5bc a0ae 25bc
00000010: d838 66bb 3585 6cbc c8f2 cfbc 9ebb 0ebd
00000020: df1b e0bb ac0a 953c 8097 573d 1e12 e139
00000030: 115a 0dbc 6fc3 d93b 4aa5 6abd 2b13 86bd
00000040: b459 a3bc 5370 abbd dea8 8f3d 4146 743a
00000050: 7bfa edbc 0621 573b eda7 943b 1df5 183d
00000060: f60b b6bc 47a8 bfbd e1ce 4c3c a44c 0d3c
00000070: c581 8bbd f98f e63c 3031 c03b 7f6d b8bd
00000080: 0ded a7bd ab32 05bd 60d8 1abd a624 14bd
00000090: 5291 fe3b ed0e ebbb 2efd 733c 8c0b c4bd
000000a0: 3d26 c3bc 8935 9cbb 131e 16bd 802b 18bc
000000b0: 8cd5 d4bc a722 39bd cb17 bcbb 83d7 d5bd
000000c0: f59c cdbd c7e5 41bd 9fdb 2cbd d93f 19bc
000000d0: f3b6 703c eb31 eabc afe7 03bd c638 17bd
000000e0: e772 303c b937 2a3c 1530 b4bb fe2f 4bbd
000000f0: dd8c 303d 5db4 c4bd 95b1 2a3d 4625 8ebc
00000100: 90cd 943c ee57 12ba fe5f b8bc b744 cabd
00000110: 6a1d 70bd 3a91 293d ded3 a2bc 0d12 1ebd
00000120: ba51 023d 862e c1bd 2e9c a2bd 95a2 343d
00000130: a56b 69bd 7eda 13bc 69cb 92bc c5c0 2abd
00000140: 838a a0bd 02ac 23bc 6982 61bd bb8e c6bc
00000150: 0618 98bd f6bf a03c 41c7 113d 8ca9 bc3d
00000160: fe6c 79bd 5841 44bc 862f a33c 953d 0c3d
00000170: dc41 13bc c9c2 4abb 538e c6bd 8fb6 bf3b
00000180: 5819 6cbd 8c34 06be 21a4 a03c ef11 423c
00000190: e995 f3bd 5a29 19bc 14e9 1e3d 9190 57bb
000001a0: b048 03bc 2f8e 093c 6a90 e8bc 6eda 04bd
000001b0: 02ce adba 359d 12bc 792d 05be 09f6 8abb
000001c0: 6117 4cbc acaf f23c 2abc bebb 43ed 58bd
000001d0: ade2 493c 730a 45bd 6c1d 5a3d ffb1 67bd
000001e0: ad30 57bc 8ea5 463d d1e5 fcbd 6527 3d3b
000001f0: ca8a f03c 2a61 a139 2441 ebbb 9c98 9f3b

action_model._continuous_distribution.mu.weight f4 [1, 128]
0.0016533474 0.0016027925 0.0013199938 0.0016996558 0.0002602575 0.001638333 -0.0028579945 -0.12274998
0.001209252 0.0011324043 0.16807155 -0.0009023381 0.0011507517 -0.0025718026 -0.07183491 -0.0018320418
0.00065999787 -0.043766312 -9.926936e-05 0.00024910748 0.13600981 -0.00014022677 -0.00047214795 8.352259e-05
-0.0016291556 0.091361985 0.1700361 -0.0012738475 -0.102077805 0.22680789 0.00084747333 -0.032235727
0.002832437 0.09254175 -0.16046989 0.0021628744 0.004181 -0.0017878126 0.23191802 0.1356096
-0.0022712734 -0.0038840761 -0.14006291 0.00036142385 -0.27225298 -0.044275828 0.0006380685 -0.056723192
-0.06788039 0.00088789046 -0.00077345397 0.00023501231 -0.0011459035 -0.22331221 -0.015925746 -0.097073205
0.0038657256 -0.0027213362 0.20091118 -0.10741591 0.3848817 -0.08019503 0.16003647 0.002117779
0.029611055 -0.0561956 0.10537462 0.14844026 0.11896724 0.49245715 0.004700712 0.0021288528
0.0005494032 -0.122579426 0.12499248 0.06371875 -0.0004455083 0.000108237946 -0.0019412681 -0.0015016529
0.0475229 -0.014043216 -0.16166094 6.407361e-05 -0.3706878 0.003984393 0.0029312884 -0.37527364
-0.0029954312 -0.0022769386 0.00054884615 -0.0010142751 -0.0004666654 -0.00055619684 -0.13468984 0.16471474
-0.14433411 -0.59547716 0.0015053203 -0.28876644 -0.014655727 -0.0024458035 0.2313917 -0.00143953
-0.001874232 0.0022835894 -0.0017472927 0.0013308371 0.21842396 0.078370914 -0.20870084 -0.0024453376
0.0001676825 -0.0015941504 -0.0022922475 0.0013851576 0.12790734 0.29330575 0.003791556 0.07317494
-0.19552898 -0.0015947636 -0.12170726 -0.0009930008 0.0006270415 -0.0015921216 -2.1312908e-05 0.001784413
00000000: 22b5 d83a cb14 d23a a403 ad3a fcc6 de3a
00000010: 2c73 8839 55bd d63a 314d 3bbb 5764 fbbd
00000020: c47f 9e3a 2f6d 943a f31a 2c3e e38a 6cba
00000030: d2d4 963a b08b 28bb 2e1e 93bd 1f21 f0ba
00000040: b503 2d3a 4e44 33bd d52e d0b8 a49a 8239
00000050: 2846 0b3e d609 13b9 a08a f7b9 d928 af38
00000060: 6489 d5ba fe1b bb3d f21d 2e3e 3bf7 a6ba
00000070: 2b0e d1bd 5440 683e f928 5e3a 9c09 04bd
00000080: 68a0 393b 8786 bd3d 3852 24be 03bf 0d3b
00000090: c500 893b 0955 eaba eb7b 6d3e 3edd 0a3e
000000a0: a5d9 14bb fc8b 7ebb a76c 0fbe 7d7d bd39
000000b0: be64 8bbe 925a 35bd 0d44 273a 9456 68bd
000000c0: e004 8bbd 52c1 683a 9ec1 4aba a36d 7639
000000d0: 2432 96ba f5ab 64be b676 82bc 51ce c6bd
000000e0: 1d58 7d3b 7258 32bb a9bb 4d3e dffc dbbd
000000f0: 370f c53e 4b3d a4bd 9ae0 233e 70ca 0a3b
00000100: e292 f23c 5c2d 66bd a6ce d73d b900 183e
00000110: 19a5 f33d 5823 fc3e 6e08 9a3b 3984 0b3b
00000120: d305 103a ec0a fbbd 0ffc ff3d fa7e 823d
00000130: 1d93 e9b9 cefd e238 2672 feba 1cd3 c4ba
00000140: 5fa7 423d 8415 66bc 728a 25be 425f 8638
00000150: cbca bdbe 838f 823b dc1a 403b de23 c0be
00000160: ff4e 44bb b138 15bb 71e0 0f3a 6df1 84ba
00000170: c5aa f4b9 bdcd 11ba 22ec 09be fbaa 283e
00000180: 52cc 13be 3171 18bf 2b4e c53a 32d9 93be
00000190: 931e 70bc c649 20bb f2f1 6c3e 9dae bcba
000001a0: caa8 f5ba 46a8 153b 6a05 e5ba 7c6f ae3a
000001b0: 88aa 5f3e ee80 a03d acb5 55be f541 20bb
000001c0: eed3 2f39 d0f2 d0ba 8839 16bb 2d8e b53a
000001d0: 24fa 023e 2c2c 963e c17b 783b bedc 953d
000001e0: c038 48be 6307 d1ba a841 f9bd 9427 82ba
000001f0: 0b60 243a bcae d0ba 1fc9 b2b7 f7e2 e93a
